fixed_weights.pth (torch, 26578 bytes, 11 tensors)

node_gcn.conv1.bias f4 [64]
0.0 0.0 0.0 0.0 0.0 0.0 0.0 0.0
0.0 0.0 0.0 0.0 0.0 0.0 0.0 0.0
0.0 0.0 0.0 0.0 0.0 0.0 0.0 0.0
0.0 0.0 0.0 0.0 0.0 0.0 0.0 0.0
0.0 0.0 0.0 0.0 0.0 0.0 0.0 0.0
0.0 0.0 0.0 0.0 0.0 0.0 0.0 0.0
0.0 0.0 0.0 0.0 0.0 0.0 0.0 0.0
0.0 0.0 0.0 0.0 0.0 0.0 0.0 0.0
00000000: 0000 0000 0000 0000 0000 0000 0000 0000
00000010: 0000 0000 0000 0000 0000 0000 0000 0000
00000020: 0000 0000 0000 0000 0000 0000 0000 0000
00000030: 0000 0000 0000 0000 0000 0000 0000 0000
00000040: 0000 0000 0000 0000 0000 0000 0000 0000
00000050: 0000 0000 0000 0000 0000 0000 0000 0000
00000060: 0000 0000 0000 0000 0000 0000 0000 0000
00000070: 0000 0000 0000 0000 0000 0000 0000 0000
00000080: 0000 0000 0000 0000 0000 0000 0000 0000
00000090: 0000 0000 0000 0000 0000 0000 0000 0000
000000a0: 0000 0000 0000 0000 0000 0000 0000 0000
000000b0: 0000 0000 0000 0000 0000 0000 0000 0000
000000c0: 0000 0000 0000 0000 0000 0000 0000 0000
000000d0: 0000 0000 0000 0000 0000 0000 0000 0000
000000e0: 0000 0000 0000 0000 0000 0000 0000 0000
000000f0: 0000 0000 0000 0000 0000 0000 0000 0000

node_gcn.conv1.lin.weight f4 [64, 50]
-0.1752578 0.09365018 0.1299042 0.20223264 -0.21838549 0.20715375 0.17392172 0.22569038
0.12503298 -0.11152198 0.17403744 0.20966692 -0.08772166 -0.03750038 0.17952521 0.18467565
0.15154897 0.17576279 -0.11789637 -0.039577663 -0.091653615 0.1192361 0.057173237 -0.17721288
-0.028817296 -0.18707822 -0.21590701 0.20914178 -0.11540093 0.10239504 -0.051085964 -0.046456516
-0.00014817715 0.17892767 -0.031736463 0.18983363 0.13423292 0.15738119 -0.20806637 -0.10727373
-0.18691057 -0.048725292 -0.04751703 0.04661815 0.20554976 0.1029859 -0.1596407 -0.14387655
0.17323308 0.022836968 0.064811036 -0.119992524 -0.027977064 0.0653158 -0.15054841 0.14973079
0.11432795 -0.13378888 -0.09407902 -0.05393587 0.035703108 -0.08415428 0.21946393 -0.22097535
-0.12966566 -0.13925043 0.062029526 0.032555684 -0.065373406 0.19579671 -0.19804384 0.08085759
-0.12623638 -0.052239925 -0.22092745 -0.17126046 -0.1946476 0.100088105 -0.0861471 0.12000753
-0.12433161 -0.05684109 0.027770087 0.19223307 -0.061830655 0.13299729 0.06328936 0.13953124
0.14492382 0.09310056 -0.069179684 -0.0643893 0.08931185 0.12504132 -0.012244716 0.11500047
-0.13802089 0.12931205 -0.02815272 -0.15787745 -0.11146945 -0.17520438 0.04627715 -0.13605747
-0.065696284 -0.014374033 -0.13998047 0.005890861 -0.029115751 0.07266562 0.16573165 -0.13849121
0.12543218 -0.004860595 -0.13112369 -0.104043216 0.058395013 0.047767445 -0.0074101835 -0.11421359
0.115693375 0.03403862 -0.22302215 -0.040543884 -0.062243342 -0.09789388 -0.1272564 -0.18611635
0.22595246 -0.20955168 0.21325965 -0.18034458 -0.055660263 -0.09398398 -0.122794755 0.081565425
0.13296814 -0.15070358 -0.10685029 0.117099985 -0.027730867 0.055873975 0.11995064 -0.08479932
-0.12731975 0.08444722 -0.084010914 -0.15270865 -0.11572088 -0.106670305 0.22843345 0.044121996
0.09880309 0.030816212 -0.15465973 0.1655551 -0.035662398 -0.059402823 0.1869639 -0.11686681
0.04658477 -0.1951602 0.11755787 0.09112649 -0.1886477 0.12804542 0.025247023 -0.118462235
0.19560753 0.09852795 0.08062042 -0.085210875 -0.12579334 -0.12344281 0.086192295 0.06180145
-0.1373048 0.20875733 0.13366158 -0.08759269 0.118694946 -0.09724894 0.07199703 0.19095026
-0.20292555 -0.114067115 -0.01296559 0.03421174 -0.18866551 -0.15093298 -0.021973118 -0.03307669
0.04948373 0.029151395 0.0470628 0.015208766 0.026368394 -0.013241589 0.082388386 0.15657543
-0.11448998 -0.118849106 0.100694045 -0.16589823 0.14908765 0.10598518 0.033180848 -0.099598736
0.006879151 -0.1813884 -0.20640112 0.21604161 -0.205769 -0.19035861 -0.08911592 0.01288338
0.052544013 -0.11305205 -0.022262245 -0.051230773 0.191958 0.1991223 0.09429194 -0.0014141351
0.17204653 -0.18522668 0.09585385 -0.13334969 0.1789125 -0.2028007 0.08524002 -0.18862182
0.13389806 0.04194857 0.1968476 -0.17302933 0.14765404 -0.15310366 -0.123835206 0.087259844
-0.038616 -0.18113132 -0.19521284 -0.059562072 0.06352018 0.20150839 0.16872533 0.0037598163
-0.14072222 -0.20453651 0.20496036 -0.12790953 -0.040347904 -0.18511897 -0.15857467 0.04451479
00000000: c876 33be aacb bf3d 9b05 053e 1316 4f3e
00000010: 72a0 5fbe 1d20 543e 8918 323e 611b 673e
00000020: a508 003e a365 e4bd df36 323e edb2 563e
00000030: 6aa7 b3bd 009a 19bd 75d5 373e 9d1b 3d3e
00000040: a72f 1b3e 29fb 333e a773 f1bd 301c 22bd
00000050: e4b4 bbbd 0e32 f43d 7c2e 6a3d 4b77 35be
00000060: 4012 ecbc 6f91 3fbe ba16 5dbe 4329 563e
00000070: 5357 ecbd 7eb4 d13d 843f 51bd 3049 3ebd
00000080: 0060 1bb9 d138 373e 18fe 01bd bf63 423e
00000090: 5b74 093e 8928 213e 5a0f 55be 54b2 dbbd
000000a0: 7c65 3fbe 2c94 47bd 38a1 42bd acf2 3e3d
000000b0: a37b 523e 46ea d23d da78 23be 6054 13be
000000c0: 0364 313e 9814 bb3c a6bb 843d a4be f5bd
000000d0: 2830 e5bc 4ac4 853d 5d29 1abe 0753 193e
000000e0: c624 ea3d f4ff 08be 80ac c0bd dceb 5cbd
000000f0: 6c3d 123d 1459 acbd 27bb 603e 5d47 62be
00000100: 13c7 04be aa97 0ebe ac12 7e3d 1c59 053d
00000110: 7ee2 85bd ef7e 483e 01cc 4abe aa98 a53d
00000120: 1c44 01be 88f9 55bd ce3a 62be e75e 2fbe
00000130: b351 47be fefa cc3d e46d b0bd 82c6 f53d
00000140: 92a1 febd 34d2 68bd 187e e33c bfd8 443e
00000150: 2442 7dbd 7130 083e da9d 813d 47e1 0e3e
00000160: e966 143e 82ab be3d 14ae 8dbd 8ade 83bd
00000170: 22e9 b63d d50a 003e 109e 48bc 5e85 eb3d
00000180: 5955 0dbe 616a 043e 88a0 e6bc a0aa 21be
00000190: 184a e4bd c768 33be 1c8d 3d3d a652 0bbe
000001a0: c68b 86bd 1081 6bbc 0a57 0fbe 2008 c13b
000001b0: 2884 eebc b6d1 943d 8fb5 293e a4d0 0dbe
000001c0: 4b71 003e a045 9fbb 4a45 06be 9c14 d5bd
000001d0: 9c2f 6f3d cca7 433d 20d1 f2bb d1e8 e9bd
000001e0: a6f0 ec3d 146c 0b3d eb5f 64be 5811 26bd
000001f0: e0f2 7ebd 967c c8bd 804f 02be 4995 3ebe
00000200: 1560 673e b794 56be bd60 5a3e 40ac 38be
00000210: 04fc 63bd ac7a c0bd d17b fbbd c60b a73d
00000220: cd28 083e 0a52 1abe 53d4 dabd 1ed2 ef3d
00000230: d82b e3bc 1cdc 643d aea8 f53d 44ab adbd
00000240: 1c60 02be aaf2 ac3d ea0d acbd a85f 1cbe
00000250: 12ff ecbd f675 dabd 75ea 693e 44b9 343d
00000260: 4659 ca3d 4872 fc3c 1f5f 1ebe 4787 293e
00000270: bc12 12bd 6050 73bd 7773 3f3e de57 efbd
00000280: accf 3e3d 13d8 47be 2ec2 f03d 86a0 ba3d
00000290: dd2c 41be 571e 033e d8d2 ce3c 549c f2bd
000002a0: 574d 483e 06c9 c93d 521c a53d 0a83 aebd
000002b0: f8cf 00be 95cf fcbd 9685 b03d 8423 7d3d
000002c0: a199 0cbe 7bc4 553e 95de 083e cc63 b3bd
000002d0: 5616 f33d 742a c7bd 2e73 933d 7788 433e
000002e0: b7cb 4fbe 059c e9bd a06d 54bc 9c21 0c3d
000002f0: 8831 41be 2d8e 1abe f800 b4bc 6c7b 07bd
00000300: 74af 4a3d e8ce ee3c ecc4 403d 302e 793c
00000310: 8802 d83c 40f3 58bc 3ebb a83d 4f55 203e
00000320: b979 eabd 2967 f3bd ae38 ce3d 3ae1 29be
00000330: 6faa 183e c20e d93d a4e8 073d 6cfa cbbd
00000340: 806a e13b e1bd 39be d15a 53be 033a 5d3e
00000350: 1cb5 52be 5eed 42be 6882 b6bd d014 533c
00000360: 6438 573d d587 e7bd 505f b6bc 5cd7 51bd
00000370: a390 443e b7e6 4b3e 221c c13d 805a b9ba
00000380: f72c 303e 10ac 3dbe 064f c43d d28c 08be
00000390: d734 373e fdaa 4fbe 5292 ae3d 1426 41be
000003a0: 931c 093e 44d2 2b3d 6b92 493e 9a2e 31be
000003b0: 9f32 173e 35c7 1cbe 509d fdbd 4ab5 b23d
000003c0: d02b 1ebd 7d7a 39be e0e5 47be 5cf7 73bd
000003d0: de16 823d 3758 4e3e 55c6 2c3e 4067 763b
000003e0: 7c19 10be 0572 51be 21e1 513e b7fa 02be
000003f0: d843 25bd d48f 3dbe 6661 22be 2455 363d

node_gcn.conv2.bias f4 [16]
0.0 0.0 0.0 0.0 0.0 0.0 0.0 0.0
0.0 0.0 0.0 0.0 0.0 0.0 0.0 0.0
00000000: 0000 0000 0000 0000 0000 0000 0000 0000
00000010: 0000 0000 0000 0000 0000 0000 0000 0000
00000020: 0000 0000 0000 0000 0000 0000 0000 0000
00000030: 0000 0000 0000 0000 0000 0000 0000 0000

node_gcn.conv2.lin.weight f4 [16, 64]
0.1637786 0.16585529 -0.050104037 0.0137292445 -0.017601699 -0.06184344 0.18684816 -0.16373357
-0.25589764 -0.045273647 -0.15966827 -0.18086883 -0.07869519 -0.010538042 0.17988443 0.154111
0.2229203 0.20495453 0.082365245 -0.0017853975 -0.00874418 -0.20785484 0.026107222 -0.064037144
-0.075428784 0.23021334 0.12566054 0.17182896 0.17689592 -0.1585634 0.07903376 -0.034354433
0.095573634 0.16100645 -0.06874703 0.20550561 0.011448562 -0.05210568 0.17940849 0.21217331
-0.07727343 0.15750694 -0.061017632 -0.008372158 -0.1946567 -0.11677559 0.03605452 -0.06316279
-0.02744706 0.065826684 -0.108806565 0.14471635 0.26851034 0.2182115 0.24106646 -0.07598029
0.008819401 -0.09186162 -0.13342033 -0.06133832 0.16668132 -0.25610057 -0.1451394 0.14064506
0.14282319 -0.070031255 -0.06216544 -0.038107187 0.19829789 0.19789225 -0.12786186 0.045387357
-0.2650973 -0.18079261 -0.025061324 -0.09158498 -0.12921388 0.22505754 0.13631082 0.021098822
-0.08063115 0.0040675104 0.22472465 -0.051136434 0.020864695 0.08482075 0.16219014 0.16773883
-0.12821692 0.10764155 0.04357204 0.039452612 -0.23598602 0.2534297 0.1221351 0.032113582
0.10522893 -0.068015456 -0.1966227 -0.0716079 -0.24512896 0.23684931 0.11721632 0.07186672
-0.18523285 -0.17838448 0.15619466 -0.22188193 0.05311829 0.20489287 -0.23878305 0.19332841
-0.22576274 -0.053188995 0.18911096 0.20308486 0.2487176 0.22659308 -0.26414612 0.04589495
-0.24473985 0.1558975 0.08107841 0.21102759 0.064251095 0.18774769 -0.0120176375 -0.21995005
-0.18012384 -0.0038538277 -0.24595672 0.23256981 -0.1644222 -0.20779672 0.26670516 -0.17559156
-0.12224686 0.00461787 0.087331265 -0.09817904 0.14659148 -0.17531888 0.05317062 -0.2694419
-0.24589485 0.0969542 0.13164878 -0.12229256 0.09611991 -0.07161862 0.15298733 0.029904604
-0.060507104 0.052032024 -0.25991315 0.15340674 0.25312912 0.23358417 -0.15777211 -0.11026806
-0.11999038 0.04163751 -0.1917752 -0.20565169 -0.106519654 0.23972219 0.072143614 -0.24799424
-0.12777194 -0.21695937 -0.035141185 0.0086889565 -0.18287773 -0.21359645 -0.053994358 0.01597783
0.20131531 0.099386245 -0.15948161 -0.25277105 0.053402513 -0.039290205 0.16059491 -0.18946338
-0.0132903755 -0.19975963 -0.13734128 -0.16157947 -0.057033584 -0.022943944 0.25458813 0.2427262
0.21332699 0.0654743 0.0043309033 0.2607177 -0.18902937 -0.2529715 -0.1479818 0.20513758
0.2681293 -0.11253995 -0.17724404 -0.24329343 0.12689528 -0.11029528 0.20470014 -0.09683171
0.25054955 0.17655948 0.18040326 0.14566687 -0.22006509 0.037576377 -0.16338536 -0.08415766
0.16962487 -0.13916372 0.17270133 0.014130473 -0.12985446 -0.1329937 -0.26622194 0.09393889
0.010516733 0.24382871 0.098707765 0.08505216 -0.014547944 0.12798747 -0.040632054 0.10979918
-0.12453619 0.17317441 0.07509646 0.14467019 0.018494755 0.12997946 0.24749923 0.042143583
0.19041255 -0.25074434 -0.021670371 -0.23801522 0.019581288 0.05142936 0.07733232 -0.11657186
0.12819391 -0.11523244 -0.06966865 0.20538566 -0.2520327 0.05557978 -0.23562378 0.11768803
00000000: 94b5 273e f8d5 293e e439 4dbd a0f0 603c
00000010: 7031 90bc 8c4f 7dbd 2055 3f3e c6a9 27be
00000020: 0405 83be dc70 39bd 1480 23be ae35 39be
00000030: f22a a1bd c0a7 2cbc a033 383e 46cf 1d3e
00000040: 3845 643e 9adf 513e 1caf a83d 0004 eaba
00000050: c043 0fbc e6d7 54be d0de d53c e825 83bd
00000060: 687a 9abd 0cbd 6b3e 28ad 003e eef3 2f3e
00000070: 3424 353e 725e 22be 74dc a13d 3cb7 0cbd
00000080: 1cbc c33d e0de 243e 3ecb 8cbd 1070 523e
00000090: c092 3b3c c46c 55bd dcb6 373e f643 593e
000000a0: 8841 9ebd 8049 213e a0ed 79bd 602b 09bc
000000b0: 1654 47be 0a28 efbd e8ad 133d 7e5b 81bd
000000c0: a8d8 e0bc 24d0 863d fad5 debd 8630 143e
000000d0: 307a 893e d672 5f3e 20da 763e 8e9b 9bbd
000000e0: 407f 103c f221 bcbd 579f 08be e43d 7bbd
000000f0: 82ae 2a3e 9d1f 83be 6c9f 14be 4205 103e
00000100: 3e40 123e 8c6c 8fbd 30a1 7ebd 4816 1cbd
00000110: 9a0e 4b3e 44a4 4a3e 38ee 02be 18e8 393d
00000120: d5ba 87be b321 39be 684d cdbc e890 bbbd
00000130: a550 04be 7c75 663e 1095 0b3e 70d7 ac3c
00000140: f221 a5bd c048 853b 381e 663e 7074 51bd
00000150: 70ec aa3c 80b6 ad3d 2c15 263e bac3 2b3e
00000160: 4c4b 03be 2c73 dc3d 9878 323d 1099 213d
00000170: 52a6 71be 8ac1 813e f821 fa3d 8889 033d
00000180: 4482 d73d b04b 8bbd 7657 49be 2aa7 92bd
00000190: 1603 7bbe a088 723e 1c0f f03d dc2e 933d
000001a0: aead 3dbe 6caa 36be 7ef1 1f3e 0435 63be
000001b0: 9092 593d 70cf 513e 8b83 74be e2f7 453e
000001c0: 592e 67be b4dc 59bd 4ea6 413e 7af5 4f3e
000001d0: d4af 7e3e 0408 683e 293e 87be 58fc 3b3d
000001e0: 159d 7abe 98a3 1f3e 700c a63d 9e17 583e
000001f0: 1496 833d ee40 403e a0e5 44bc 963a 61be
00000200: 6272 38be 8090 7cbb 14dc 7bbe c826 6e3e
00000210: 4b5e 28be aac8 54be 948d 883e 46ce 33be
00000220: 905c fabd 8051 973b bcda b23d 1812 c9bd
00000230: 141c 163e cb86 33be 70c9 593d 4af4 89be
00000240: dccb 7bbe ec8f c63d f0ce 063e 8674 fabd
00000250: 84da c43d c8ac 92bd b6a8 1c3e 80fa f43c
00000260: 4cd6 77bd 881f 553d 5613 85be a816 1d3e
00000270: 249a 813e b030 6f3e 038f 21be 38d4 e1bd
00000280: 84bd f5bd 188c 2a3d b860 44be 5b96 52be
00000290: fa26 dabd bc79 753e 08c0 933d 34f2 7dbe
000002a0: a6d6 02be 992a 5ebe 34f0 0fbd 205c 0e3c
000002b0: 4d44 3bbe 07b9 5abe 3029 5dbd f0e3 823c
000002c0: 9a25 4e3e 048b cb3d 264f 23be 356b 81be
000002d0: 98bc 5a3d c4ee 20bd fe72 243e b002 42be
000002e0: e0bf 59bc ca8d 4cbe 31a3 0cbe 1775 25be
000002f0: 0c9c 69bd f0f4 bbbc 6059 823e 388d 783e
00000300: 6472 5a3e 6417 863d 40ea 8d3b ca7c 853e
00000310: ea90 41be 7b85 81be 8a88 17be 960f 523e
00000320: 3e48 893e 587b e6bd 767f 35be ea21 79be
00000330: d6f0 013e 7ee2 e1bd ea9c 513e b44f c6bd
00000340: 0848 803e 02cc 343e a2bb 383e b229 153e
00000350: be58 61be b0e9 193d 7e4e 27be da5a acbd
00000360: 24b2 2d3e ef80 0ebe 9ed8 303e 8083 673c
00000370: 91f8 04be 802f 08be 3e4e 88be 0863 c03d
00000380: 604e 2c3c 3cae 793e 4c27 ca3d d42f ae3d
00000390: 805a 6ebc 260f 033e cc6d 26bd 64de e03d
000003a0: d40c ffbd a254 313e 2ccc 993d 6c24 143e
000003b0: 5082 973c 5619 053e 7070 7d3e c09e 2c3d
000003c0: 82fb 423e 9061 80be 1086 b1bc 43ba 73be
000003d0: f068 a03c 98a7 523d 6860 9e3d 3abd eebd
000003e0: 4445 033e fcfe ebbd 70ae 8ebd 9e50 523e
000003f0: 6e0a 81be a0a7 633d 5c47 71be 6c06 f13d

edge_cnn.conv1.weight f4 [16, 50, 1]
-0.061847128 0.06681003 0.12353419 0.076544315 -0.029824749 -0.11103345 -0.11676481 -0.033864655
-0.04455138 -0.10725175 0.0349738 -0.053587414 0.04101166 -0.07509819 -0.012742832 -0.042560443
0.08686772 -0.1290686 -0.055767298 0.030200675 -0.039843053 -0.0024203062 0.09558 0.020244762
0.017433688 0.04131572 -0.07608673 -0.056479275 0.06774336 0.020501122 0.09225413 -0.018055528
0.13285209 0.08445667 -0.039618142 -0.07227357 0.028558701 -0.117977634 -0.06476594 0.04332441
0.0123348385 0.06400108 -0.05915413 0.119013116 -0.07776778 -0.072464325 0.09461647 -0.02728498
0.040457115 -0.025122859 -0.10001768 -0.0056571215 0.06415966 0.0953092 0.107879564 -0.004979998
0.10243131 0.039892897 0.005233541 0.0026717186 -0.013494328 0.04038818 -0.007306218 0.09094918
-0.021540076 -0.078532025 0.041098893 -0.079243414 0.087825626 0.11550023 0.022702858 -0.02836942
-0.006386131 0.06623268 -0.10803419 -0.037854888 -0.086162694 -0.12791541 -0.101187356 -0.090865746
0.10768092 0.08644062 -0.09600906 -0.111603424 0.12664802 0.03356847 0.06512445 0.022085205
-0.052841663 -0.076403946 0.07608783 -0.13970356 -0.11767959 0.042706564 -0.037086785 0.027051404
0.075426415 -0.08127031 -0.07960763 -0.08698261 -0.12373712 -0.009572819 0.12009026 -0.008643791
0.077559456 -0.07033153 0.014031649 -0.1061928 -0.009348109 0.031034827 -0.060509324 0.1298408
0.039928526 0.07073663 0.14074619 0.05994919 -0.01111041 0.06754267 0.13936205 -0.13615167
-0.026663244 0.06867479 -0.03427697 -0.115057245 -0.0820968 -0.07350417 0.058631226 0.09003712
-0.01609382 -0.11571801 0.020093769 0.03953798 -0.053345084 0.048764423 -0.057769746 0.04760872
0.10118525 0.07052994 -0.0133648515 0.13583438 -0.012435794 -0.12614068 0.101655155 0.13150187
0.06453928 0.12393956 0.07638247 0.057724223 0.08188321 -0.10863775 -0.0016874373 -0.060414642
0.03890322 -0.1250637 0.008360565 0.05532764 -0.052550294 -0.057039477 -0.09171954 0.038937077
-0.11870922 -0.029027835 0.0078660995 0.040349126 -0.12140974 0.028537408 -0.055482604 -0.016464733
-0.103196576 -0.11107612 0.019292086 0.024014816 0.12154566 0.13307019 0.10332881 0.054798126
0.09405504 0.06039363 -0.13174646 0.10292128 0.017169848 -0.035267524 -0.04205817 0.11280529
0.0986871 -0.013136685 -0.052865654 -0.07603388 0.081527606 -0.08576402 -0.09375557 -0.0848685
0.04106246 0.108409464 0.028266102 0.052714124 -0.11421877 -0.102752924 -0.08282901 -0.09049541
-0.063128226 -0.08573824 -0.046272434 -0.087545194 0.042125165 0.0036496818 0.007196799 0.05995974
-0.12732765 -0.055366613 -0.0048037022 -0.13214184 0.07515006 -0.10619155 0.09559898 0.13995592
0.029145092 -0.06883328 0.09981108 -0.09271326 0.006695822 0.08866745 0.13258125 0.01036261
-0.010733455 -0.012271985 -0.13711129 0.025130332 -0.11225097 0.012712926 -0.03360466 0.08992791
-0.056625403 0.10051334 -0.033699237 -0.027352192 -0.12874371 0.12290658 0.012232214 -0.12745757
0.007953301 0.057921827 -0.029885285 0.115407124 0.06916717 -0.01812721 0.14138718 0.09973794
-0.017346784 -0.012216017 0.0434023 -0.049279697 0.08705948 -0.13606127 -0.075765744 0.0648253
00000000: 6a53 7dbd b2d3 883d 7eff fc3d 44c3 9c3d
00000010: 0853 f4bc 8165 e3bd 6422 efbd aab5 0abd
00000020: 827b 36bd cea6 dbbd b040 0f3d 7a7e 5bbd
00000030: d8fb 273d 14cd 99bd 50c7 50bc dc53 2ebd
00000040: b4e7 b13d 8f2a 04be 406c 64bd 6867 f73c
00000050: 7832 23bd 009e 1ebb 72bf c33d 58d8 a53c
00000060: 18d1 8e3c ac3a 293d 5cd3 9bbd d056 67bd
00000070: 08bd 8a3d f8f1 a73c bcef bc3d 30e9 93bc
00000080: 610a 083e 9ef7 ac3d a246 22bd 2a04 94bd
00000090: f0f3 e93c 429e f1bd 01a4 84bd f074 313d
000000a0: 1018 4a3c 0013 833d 9a4b 72bd 26bd f33d
000000b0: b744 9fbd 2d68 94bd 48c6 c13d c084 dfbc
000000c0: 5cb6 253d 74ce cdbc 12d6 ccbd 605f b9bb
000000d0: 2466 833d 7831 c33d f6ef dc3d 402f a3bb
000000e0: 82c7 d13d bc66 233d 207e ab3b 0018 2f3b
000000f0: 5017 5dbc 146e 253d 0069 efbb 9043 ba3d
00000100: d074 b0bc 66d5 a0bd 5057 283d 5f4a a2bd
00000110: ecdd b33d 628b ec3d 58fb b93c fc66 e8bc
00000120: c042 d1bb 00a5 873d 0841 ddbd ba0d 1bbd
00000130: 1176 b0bd 42fc 02be 513b cfbd d217 babd
00000140: d087 dc3d c807 b13d 66a0 c4bd 5690 e4bd
00000150: 05b0 013e 187f 093d f85f 853d 08ec b43c
00000160: 8070 58bd ac79 9cbd f0d3 9b3d 730e 0fbe
00000170: ff01 f1bd 14ed 2e3d 50e8 17bd e89a dd3c
00000180: 2a79 9a3d 0c71 a6bd 5309 a3bd f023 b2bd
00000190: e369 fdbd 50d7 1cbc e2f1 f53d b09e 0dbc
000001a0: 7ed7 9e3d fa09 90bd 00e5 653c 9c7b d9bd
000001b0: d028 19bc c03c fe3c a0d8 77bd fdf4 043e
000001c0: 188c 233d 5ede 903d c51f 103e 488d 753d
000001d0: 7008 36bc d053 8a3d edb4 0e3e 586b 0bbe
000001e0: e06c dabc 5ea5 8c3d 0266 0cbd 22a3 ebbd
000001f0: 5e22 a8bd 5b89 96bd 4c27 703d 6265 b83d
00000200: 30d7 83bc 90fd ecbd b09b a43c 94f2 213d
00000210: 6080 5abd 34bd 473d f89f 6cbd 5c01 433d
00000220: 363a cf3d 0072 903d 40f8 5abc 2b18 0b3e
00000230: 80bf 4bbc 062b 01be 9430 d03d 6da8 063e
00000240: 2c2d 843d 06d4 fd3d 6a6e 9c3d 3c70 6c3d
00000250: 62b2 a73d 787d debd 002d ddba 5875 77bd
00000260: fc58 1f3d b310 00be c0fa 083c 3c9f 623d
00000270: fa3e 57bd 3aa2 69bd 74d7 bbbd 7c7c 1f3d
00000280: d21d f3bd c8cb edbc d0e0 003c 2045 253d
00000290: aba5 f8bd 48c7 e93c ba41 63bd 0ce1 86bc
000002a0: ba58 d3bd e07b e3bd 700a 9e3c b8ba c43c
000002b0: eeec f83d 8d43 083e 0e9e d33d 0074 603d
000002c0: ee9f c03d 505f 773d 8be8 06be 64c8 d23d
000002d0: c8a7 8c3c ae74 10bd 3045 2cbd 7606 e73d
000002e0: 761c ca3d 403b 57bc a889 58bd a7b7 9bbd
000002f0: f2f7 a63d 0ca5 afbd ec02 c0bd 89cf adbd
00000300: 1c31 283d c805 de3d 508e e73c c4ea 573d
00000310: 88eb e9bd 2070 d2bd 42a2 a9bd a855 b9bd
00000320: 5f49 81bd 8897 afbd 2a88 3dbd e54a b3bd
00000330: 708b 2c3d 802f 6f3b 20d3 eb3b 5898 753d
00000340: 2e62 02be 1ac8 62bd 6068 9dbb 3150 07be
00000350: 46e8 993d f57a d9bd 66c9 c33d 9b50 0f3e
00000360: b0c1 ee3c 76f8 8cbd c069 cc3d 73e0 bdbd
00000370: a068 db3b 4897 b53d 61c3 073e f0c7 293c
00000380: 60db 2fbc 7010 49bc e766 0cbe 20de cd3c
00000390: d6e3 e5bd e049 503c 0aa5 09bd 202c b83d
000003a0: 0af0 67bd f0d9 cd3d 3608 0abd b411 e0bc
000003b0: 64d5 03be 72b6 fb3d a069 483c 3d84 02be
000003c0: 904e 023c 703f 6d3d fcd1 f4bc 925a ec3d
000003d0: 84a7 8d3d 847f 94bc cdc7 103e 6843 cc3d
000003e0: d81a 8ebc b025 48bc 9cc6 313d 82d9 49bd
000003f0: 3e4c b23d a553 0bbe 122b 9bbd 20c3 843d

edge_cnn.conv1.bias f4 [16]
0.12053631 -0.013497695 0.06515667 -0.13888155 0.11141591 0.07515475 -0.099474385 -0.040902592
-0.054981224 -0.08268589 0.058272853 -0.0412357 0.05881816 -0.042970687 0.1098548 -0.055635005
00000000: bedb f63d 7025 5dbc dc70 853d f736 0ebe
00000010: 062e e43d bcea 993d 3ab9 cbbd 7a89 27bd
00000020: fe33 61bd 3857 a9bd 84af 6e3d c4e6 28bd
00000030: 50eb 703d 0802 30bd 8efb e03d 88e1 63bd

edge_cnn.conv2.weight f4 [16, 16, 1]
-0.0433082 -0.077726066 0.011510044 -0.092126966 -0.17559585 -0.23758167 0.15550497 0.034688443
-0.16070497 0.12953344 0.026159018 -0.090275586 -0.016381353 0.027490437 0.17911741 -0.22979206
-0.19403782 -0.2015653 -0.19629768 0.0015780032 0.13882619 0.06534785 0.10592294 0.030078292
-0.004764557 -0.22648156 0.2231502 0.2416136 -0.0014250576 0.045165688 0.04628572 0.24740702
-0.00047701597 -0.04112619 -0.13611636 0.064643264 0.1152527 -0.21101362 0.08551866 0.062438965
0.11089212 0.1172013 -0.06545338 0.033476055 -0.1751658 0.15048474 -0.21034122 -0.2193262
-0.18539971 -0.139487 0.010432839 0.16405964 -0.03293845 0.1795215 -0.040848643 0.21197999
0.17254567 0.15788823 0.102062166 -0.1683898 0.2449866 -0.23793271 -0.17525089 -0.15107587
-0.06597236 0.1085816 0.05176887 -0.215159 0.24137679 0.23463732 0.12329444 -0.24489555
0.13966173 0.07133052 -0.030906796 -0.20943272 0.21180433 -0.07473475 -0.20221663 0.19295868
0.09756538 0.07359657 0.16157979 0.08709195 -0.05441138 -0.043472618 0.2066864 -0.008194417
-0.20882183 -0.17275769 -0.18867287 0.023896039 0.18280834 0.14955285 0.066125005 0.08332032
-0.118415624 0.23399585 0.09534842 -0.15757188 -0.16654831 -0.22397006 -0.071125746 0.18285659
0.014677733 -0.11848524 0.06959054 -0.1735326 0.074521035 0.17069241 0.1215581 -0.07611504
-0.0850606 0.10421026 0.14968872 -0.061263055 -0.00056657195 -0.028195918 -0.029381424 -0.22185287
-0.20627236 0.21433532 -0.120388955 0.18484738 0.15510526 -0.03802663 -0.120926976 0.008300483
-0.04333788 -0.148325 0.24300373 -0.019747972 -0.038435787 -0.16937217 0.040661067 0.034647763
0.2465302 -0.077198 0.14060068 0.012126088 0.13271943 0.004381895 -0.04310444 0.097994715
-0.1113559 0.15149936 -0.20939386 -0.1792165 0.23818171 -0.09420714 -0.19878286 -0.18275535
0.24242446 -0.034964055 -0.21036932 -0.036037475 -0.12186861 -0.16769665 -0.122336864 0.1893563
0.10084322 0.14607209 0.020633727 -0.1045188 -0.10203302 -0.16778833 -0.18061921 -0.21555051
0.04441467 0.1311822 0.20400923 -0.0063488483 -0.036428332 -0.020780444 0.098499864 -0.039598495
-0.0878444 -0.06888431 -0.24421382 -0.19253051 -0.10701063 0.024221659 -0.15702236 0.09574631
-0.13672853 0.24187663 -0.2209394 0.13939983 -0.12980357 -0.0886434 -0.2334347 -0.23169836
-0.23659453 -0.0048017204 0.23026818 0.11462867 0.1565372 0.05597669 -0.096592516 -0.09736347
-0.07426402 -0.23357183 0.13741875 -0.07431418 -0.1414156 0.062026978 6.4074993e-06 0.13595971
-0.16371909 0.24835575 -0.09951541 0.09446031 0.2275899 -0.014341533 -0.21967986 -0.24187756
0.24591908 -0.2340667 -0.09273982 0.17051476 -0.19445124 0.23363289 0.02427879 0.0777072
0.039228886 0.027489692 0.14030713 -0.21661803 0.05404213 -0.11314514 0.23660442 0.20698881
-0.09820521 0.13902065 -0.042571515 0.13191763 -0.07071078 -0.14629793 0.105475545 0.12378436
0.22510642 0.079229236 -0.1115596 0.06387186 0.015047491 0.21748784 0.10256642 0.21323171
0.018569529 -0.18952093 -0.16007254 0.22573379 0.22390154 0.075307935 -0.17841142 0.18268031
00000000: f063 31bd d82e 9fbd a094 3c3c 10ad bcbd
00000010: 66cf 33be 9c48 73be b23c 1f3e 7815 0e3d
00000020: d88f 24be 6aa4 043e 704b d63c 68e2 b8bd
00000030: 3032 86bc a033 e13c 8e6a 373e 9c4e 6bbe
00000040: dab1 46be 2267 4ebe 4202 49be 00d5 ce3a
00000050: 7428 0e3e 18d5 853d 20ee d83d c066 f63c
00000060: 0020 9cbb c8ea 67be 7c81 643e 8e69 773e
00000070: 00c9 baba a8ff 383d 1896 3d3d 4458 7d3e
00000080: 0018 fab9 f073 28bd 1662 0bbe b063 843d
00000090: 9c09 ec3d f413 58be 6824 af3d 00c0 7f3d
000000a0: 681b e33d 3c07 f03d 6c0c 86bd 301e 093d
000000b0: aa5e 33be ac18 1a3e b063 57be 0c97 60be
000000c0: 6cd9 3dbe aed5 0ebe 80ee 2a3c 40ff 273e
000000d0: 78ea 06bd 7cd4 373e e850 27bd 4811 593e
000000e0: d0af 303e 74ad 213e f805 d13d 606e 2cbe
000000f0: c4dd 7a3e a2a4 73be f874 33be a2b3 1abe
00000100: 841c 87bd 0860 de3d 980b 543d a452 5cbe
00000110: 7a2b 773e c444 703e cc81 fc3d e6c5 7abe
00000120: 7c03 0f3e bc15 923d 4030 fdbc 8875 56be
00000130: 3ce3 583e 880e 99bd e011 4fbe f696 453e
00000140: 5cd0 c73d ccb9 963d 2c75 253e 445d b23d
00000150: 78de 5ebd 5810 32bd 9aa5 533e e041 06bc
00000160: 64d5 55be 64e7 30be 7633 41be a0c1 c33c
00000170: 1c32 3b3e 6224 193e 8c6c 873d d8a3 aa3d
00000180: e483 f2bd 9c9c 6f3e 0846 c33d 865a 21be
00000190: a48b 2abe 6858 65be 60aa 91bd c23e 3b3e
000001a0: e07a 703c 64a8 f2bd 7c85 8e3d 88b2 31be
000001b0: 7c9e 983d fec9 2e3e 74f3 f83d 34e2 9bbd
000001c0: 4034 aebd 306c d53d 0048 193e f8ee 7abd
000001d0: 0086 14ba 20fb e6bc 50b1 f0bc 662d 63be
000001e0: 1039 53be b87a 5b3e 7c8e f6bd a248 3d3e
000001f0: ead3 1e3e d0c1 1bbd 90a8 f7bd c0fe 073c
00000200: 1083 31bd 82e2 17be f8d5 783e 80c6 a1bc
00000210: d86e 1dbd e66f 2dbe 388c 263d d0ea 0d3d
00000220: 6a72 7c3e fc19 9ebd a0f9 0f3e 80ac 463c
00000230: 9ae7 073e 0096 8f3b 488e 30bd 74b1 c83d
00000240: 900e e4bd a622 1b3e 586b 56be 8884 37be
00000250: e8e5 733e acef c0bd bc8d 4bbe 3824 3bbe
00000260: 1e3e 783e 7836 0fbd 0e6b 57be 089c 13bd
00000270: 4096 f9bd acb8 2bbe c08b fabd 9ee6 413e
00000280: e486 ce3d ec93 153e 1008 a93c f40d d6bd
00000290: b0f6 d0bd b4d0 2bbe 3ef4 38be 46b9 5cbe
000002a0: 28ec 353d a054 063e cce7 503e 000a d0bb
000002b0: e035 15bd c03b aabc 4cba c93d 0832 22bd
000002c0: c4e7 b3bd 3813 8dbd 3013 7abe b826 45be
000002d0: 6428 dbbd 806c c63c 78ca 20be a416 c43d
000002e0: 9002 0cbe 82ae 773e f03d 62be d4be 0e3e
000002f0: 3aeb 04be ac8a b5bd 8209 6fbe 5642 6dbe
00000300: d645 72be c057 9dbb 6ccb 6b3e 70c2 ea3d
00000310: 4a4b 203e d047 653d 4cd2 c5bd 8066 c7bd
00000320: bc17 98bd 742d 6fbe 80b7 0c3e 0832 98bd
00000330: 40cf 10be 0010 7e3d 0000 d736 0639 0b3e
00000340: faa5 27be f850 7e3e bcce cbbd 6874 c13d
00000350: 540d 693e c0f8 6abc c2f3 60be c0ae 77be
00000360: 36d2 7b3e 2eaf 6fbe 60ee bdbd 6c9b 2e3e
00000370: 3a1e 47be 763d 6f3e 50e4 c63c f424 9f3d
00000380: 78ae 203d 1032 e13c acac 0f3e 1ed1 5dbe
00000390: 485b 5d3d a4b8 e7bd 6e48 723e e0f4 533e
000003a0: d01f c9bd 6e5b 0e3e 785f 2ebd 6a15 073e
000003b0: d0d0 90bd 20cf 15be 9003 d83d a882 fd3d
000003c0: 4c82 663e f042 a23d 5c79 e4bd 40cf 823d
000003d0: c089 763c 22b5 5e3e 580e d23d 6a59 5a3e
000003e0: 201f 983c c611 42be 0eea 23be c226 673e
000003f0: 7246 653e 0c3b 9a3d 7cb1 36be 8c10 3b3e

edge_cnn.conv2.bias f4 [16]
0.10370609 -0.1972613 0.07268074 0.24095935 -0.16512182 0.018999249 0.07142511 -0.08998129
0.1645565 0.22232255 0.24336186 -0.22376108 0.013917536 0.20406678 0.21296245 -0.064398885
00000000: dc63 d43d defe 49be a4d9 943d 0cbe 763e
00000010: b215 29be 50a4 9b3c 5447 923d 1c48 b8bd
00000020: 8081 283e 86a8 633e da33 793e a021 65be
00000030: 6006 643c e2f6 503e d412 5a3e 90e3 83bd

att.gate_nn.weight f4 [1, 16]
0.16561568 0.18659857 -0.01581344 0.17146325 0.14372998 -0.037188113 -0.10443655 -0.13259003
-0.2014336 -0.14942387 0.065267146 0.08920875 -0.071682006 -0.020675093 0.17303345 0.03703004
00000000: 2897 293e b213 3f3e 308b 81bc 1094 2f3e
00000010: f42d 133e 9052 18bd d4e2 d5bd aec5 07be
00000020: 9c44 4ebe 9202 19be c8aa 853d 14b3 b63d
00000030: 04ce 92bd d05e a9bc ae2f 313e d0ac 173d

fc.weight f4 [2, 32]
0.14977722 0.106667265 0.020363778 0.0842502 -0.14942811 0.103677675 0.04301539 -0.015635848
-0.056711324 0.14276962 0.038086355 -0.09875044 0.079490796 0.031266674 -0.061979577 0.12482686
0.1760119 -0.0078056604 -0.07291683 -0.09487245 -0.092262946 0.090701774 0.110876486 -0.10713197
0.09791525 0.007043749 -0.006159991 -0.05622253 -0.1628379 -0.15162551 0.12962948 -0.028956935
-0.007716894 -0.10660678 -0.03227991 -0.068961345 0.01591003 -0.16874087 0.017143771 -0.15647152
-0.12565126 -0.0037740618 -0.018829376 -0.04969102 0.102801934 0.012765244 0.036638543 0.072331116
0.009981558 -0.15658036 -0.06574164 0.110998645 0.10140298 0.061152637 0.15603639 -0.09191007
-0.05267842 -0.02633816 -0.043445542 0.1524766 -0.17664048 0.03349465 0.17351554 -0.09826702
00000000: 335f 193e 5e74 da3d f0d1 a63c 5e8b ac3d
00000010: af03 19be f654 d43d e830 303d c016 80bc
00000020: 224a 68bd 3332 123e 7000 1c3d ac3d cabd
00000030: 12cc a23d 7c11 003d 4cde 7dbd 3aa5 ff3d
00000040: 773c 343e a0c6 ffbb 6b55 95bd 7d4c c2bd
00000050: 5bf4 bcbd dac1 b93d 3613 e33d 0268 dbbd
00000060: ca87 c83d 40cf e63b c0d9 c9bb 9849 66bd
00000070: fabe 26be b843 1bbe 97bd 043e 1837 edbc
00000080: 00de fcbb a854 dabd f037 04bd 9b3b 8dbd
00000090: c055 823c 68ca 2cbe 1871 8c3c 123a 20be
000000a0: b9aa 00be 4056 77bb 1040 9abc d088 4bbd
000000b0: d289 d23d 5025 513c 4c12 163d 5622 943d
000000c0: b089 233c 9a56 20be 8ea3 86bd 4253 e33d
000000d0: 5eac cf3d 307b 7a3d 01c8 1f3e 593b bcbd
000000e0: 54c5 57bd 20c3 d7bc f4f3 31bd d322 1c3e
000000f0: 3ee1 34be b031 093d 0fae 313e 3840 c9bd

fc.bias f4 [2]
0.1404971 -0.1523075
00000000: 79de 0f3e 7ff6 1bbe
