fixed_weights.pth (torch, 37458 bytes, 11 tensors)

node_gcn.conv1.bias f4 [64]
0	0x00000000	0.0
1	0x00000000	0.0
2	0x00000000	0.0
3	0x00000000	0.0
4	0x00000000	0.0
5	0x00000000	0.0
6	0x00000000	0.0
7	0x00000000	0.0
8	0x00000000	0.0
9	0x00000000	0.0
10	0x00000000	0.0
11	0x00000000	0.0
12	0x00000000	0.0
13	0x00000000	0.0
14	0x00000000	0.0
15	0x00000000	0.0
16	0x00000000	0.0
17	0x00000000	0.0
18	0x00000000	0.0
19	0x00000000	0.0
20	0x00000000	0.0
21	0x00000000	0.0
22	0x00000000	0.0
23	0x00000000	0.0
24	0x00000000	0.0
25	0x00000000	0.0
26	0x00000000	0.0
27	0x00000000	0.0
28	0x00000000	0.0
29	0x00000000	0.0
30	0x00000000	0.0
31	0x00000000	0.0
32	0x00000000	0.0
33	0x00000000	0.0
34	0x00000000	0.0
35	0x00000000	0.0
36	0x00000000	0.0
37	0x00000000	0.0
38	0x00000000	0.0
39	0x00000000	0.0
40	0x00000000	0.0
41	0x00000000	0.0
42	0x00000000	0.0
43	0x00000000	0.0
44	0x00000000	0.0
45	0x00000000	0.0
46	0x00000000	0.0
47	0x00000000	0.0
48	0x00000000	0.0
49	0x00000000	0.0
50	0x00000000	0.0
51	0x00000000	0.0
52	0x00000000	0.0
53	0x00000000	0.0
54	0x00000000	0.0
55	0x00000000	0.0
56	0x00000000	0.0
57	0x00000000	0.0
58	0x00000000	0.0
59	0x00000000	0.0
60	0x00000000	0.0
61	0x00000000	0.0
62	0x00000000	0.0
63	0x00000000	0.0

node_gcn.conv1.lin.weight f4 [64, 50]
0	0xbe3376c8	-0.1752578
1	0x3dbfcbaa	0.09365018
2	0x3e05059b	0.1299042
3	0x3e4f1613	0.20223264
4	0xbe5fa072	-0.21838549
5	0x3e54201d	0.20715375
6	0x3e321889	0.17392172
7	0x3e671b61	0.22569038
8	0x3e0008a5	0.12503298
9	0xbde465a3	-0.11152198
10	0x3e3236df	0.17403744
11	0x3e56b2ed	0.20966692
12	0xbdb3a76a	-0.08772166
13	0xbd199a00	-0.03750038
14	0x3e37d575	0.17952521
15	0x3e3d1b9d	0.18467565
16	0x3e1b2fa7	0.15154897
17	0x3e33fb29	0.17576279
18	0xbdf173a7	-0.11789637
19	0xbd221c30	-0.039577663
20	0xbdbbb4e4	-0.091653615
21	0x3df4320e	0.1192361
22	0x3d6a2e7c	0.057173237
23	0xbe35774b	-0.17721288
24	0xbcec1240	-0.028817296
25	0xbe3f916f	-0.18707822
26	0xbe5d16ba	-0.21590701
27	0x3e562943	0.20914178
28	0xbdec5753	-0.11540093
29	0x3dd1b47e	0.10239504
30	0xbd513f84	-0.051085964
31	0xbd3e4930	-0.046456516
32	0xb91b6000	-0.00014817715
33	0x3e3738d1	0.17892767
34	0xbd01fe18	-0.031736463
35	0x3e4263bf	0.18983363
36	0x3e09745b	0.13423292
37	0x3e212889	0.15738119
38	0xbe550f5a	-0.20806637
39	0xbddbb254	-0.10727373
40	0xbe3f657c	-0.18691057
41	0xbd47942c	-0.048725292
42	0xbd42a138	-0.04751703
43	0x3d3ef2ac	0.04661815
44	0x3e527ba3	0.20554976
45	0x3dd2ea46	0.1029859
46	0xbe2378da	-0.1596407
47	0xbe135460	-0.14387655
48	0x3e316403	0.17323308
49	0x3cbb1498	0.022836968
50	0x3d84bba6	0.064811036
51	0xbdf5bea4	-0.119992524
52	0xbce53028	-0.027977064
53	0x3d85c44a	0.0653158
54	0xbe1a295d	-0.15054841
55	0x3e195307	0.14973079
56	0x3dea24c6	0.11432795
57	0xbe08fff4	-0.13378888
58	0xbdc0ac80	-0.09407902
59	0xbd5cebdc	-0.05393587
60	0x3d123d6c	0.035703108
61	0xbdac5914	-0.08415428
62	0x3e60bb27	0.21946393
63	0xbe62475d	-0.22097535
64	0xbe04c713	-0.12966566
65	0xbe0e97aa	-0.13925043
66	0x3d7e12ac	0.062029526
67	0x3d05591c	0.032555684
68	0xbd85e27e	-0.065373406
69	0x3e487eef	0.19579671
70	0xbe4acc01	-0.19804384
71	0x3da598aa	0.08085759
72	0xbe01441c	-0.12623638
73	0xbd55f988	-0.052239925
74	0xbe623ace	-0.22092745
75	0xbe2f5ee7	-0.17126046
76	0xbe4751b3	-0.1946476
77	0x3dccfafe	0.100088105
78	0xbdb06de4	-0.0861471
79	0x3df5c682	0.12000753
80	0xbdfea192	-0.12433161
81	0xbd68d234	-0.05684109
82	0x3ce37e18	0.027770087
83	0x3e44d8bf	0.19223307
84	0xbd7d4224	-0.061830655
85	0x3e083071	0.13299729
86	0x3d819dda	0.06328936
87	0x3e0ee147	0.13953124
88	0x3e1466e9	0.14492382
89	0x3dbeab82	0.09310056
90	0xbd8dae14	-0.069179684
91	0xbd83de8a	-0.0643893
92	0x3db6e922	0.08931185
93	0x3e000ad5	0.12504132
94	0xbc489e10	-0.012244716
95	0x3deb855e	0.11500047
96	0xbe0d5559	-0.13802089
97	0x3e046a61	0.12931205
98	0xbce6a088	-0.02815272
99	0xbe21aaa0	-0.15787745
100	0xbde44a18	-0.11146945
101	0xbe3368c7	-0.17520438
102	0x3d3d8d1c	0.04627715
103	0xbe0b52a6	-0.13605747
104	0xbd868bc6	-0.065696284
105	0xbc6b8110	-0.014374033
106	0xbe0f570a	-0.13998047
107	0x3bc10820	0.005890861
108	0xbcee8428	-0.029115751
109	0x3d94d1b6	0.07266562
110	0x3e29b58f	0.16573165
111	0xbe0dd0a4	-0.13849121
112	0x3e00714b	0.12543218
113	0xbb9f45a0	-0.004860595
114	0xbe06454a	-0.13112369
115	0xbdd5149c	-0.104043216
116	0x3d6f2f9c	0.058395013
117	0x3d43a7cc	0.047767445
118	0xbbf2d120	-0.0074101835
119	0xbde9e8d1	-0.11421359
120	0x3decf0a6	0.115693375
121	0x3d0b6c14	0.03403862
122	0xbe645feb	-0.22302215
123	0xbd261158	-0.040543884
124	0xbd7ef2e0	-0.062243342
125	0xbdc87c96	-0.09789388
126	0xbe024f80	-0.1272564
127	0xbe3e9549	-0.18611635
128	0x3e676015	0.22595246
129	0xbe5694b7	-0.20955168
130	0x3e5a60bd	0.21325965
131	0xbe38ac40	-0.18034458
132	0xbd63fc04	-0.055660263
133	0xbdc07aac	-0.09398398
134	0xbdfb7bd1	-0.122794755
135	0x3da70bc6	0.081565425
136	0x3e0828cd	0.13296814
137	0xbe1a520a	-0.15070358
138	0xbddad453	-0.10685029
139	0x3defd21e	0.117099985
140	0xbce32bd8	-0.027730867
141	0x3d64dc1c	0.055873975
142	0x3df5a8ae	0.11995064
143	0xbdadab44	-0.08479932
144	0xbe02601c	-0.12731975
145	0x3dacf2aa	0.08444722
146	0xbdac0dea	-0.084010914
147	0xbe1c5fa8	-0.15270865
148	0xbdecff12	-0.11572088
149	0xbdda75f6	-0.106670305
150	0x3e69ea75	0.22843345
151	0x3d34b944	0.044121996
152	0x3dca5946	0.09880309
153	0x3cfc7248	0.030816212
154	0xbe1e5f1f	-0.15465973
155	0x3e298747	0.1655551
156	0xbd1212bc	-0.035662398
157	0xbd735060	-0.059402823
158	0x3e3f7377	0.1869639
159	0xbdef57de	-0.11686681
160	0x3d3ecfac	0.04658477
161	0xbe47d813	-0.1951602
162	0x3df0c22e	0.11755787
163	0x3dbaa086	0.09112649
164	0xbe412cdd	-0.1886477
165	0x3e031e57	0.12804542
166	0x3cced2d8	0.025247023
167	0xbdf29c54	-0.118462235
168	0x3e484d57	0.19560753
169	0x3dc9c906	0.09852795
170	0x3da51c52	0.08062042
171	0xbdae830a	-0.085210875
172	0xbe00cff8	-0.12579334
173	0xbdfccf95	-0.12344281
174	0x3db08596	0.086192295
175	0x3d7d2384	0.06180145
176	0xbe0c99a1	-0.1373048
177	0x3e55c47b	0.20875733
178	0x3e08de95	0.13366158
179	0xbdb363cc	-0.08759269
180	0x3df31656	0.118694946
181	0xbdc72a74	-0.09724894
182	0x3d93732e	0.07199703
183	0x3e438877	0.19095026
184	0xbe4fcbb7	-0.20292555
185	0xbde99c05	-0.114067115
186	0xbc546da0	-0.01296559
187	0x3d0c219c	0.03421174
188	0xbe413188	-0.18866551
189	0xbe1a8e2d	-0.15093298
190	0xbcb400f8	-0.021973118
191	0xbd077b6c	-0.03307669
192	0x3d4aaf74	0.04948373
193	0x3ceecee8	0.029151395
194	0x3d40c4ec	0.0470628
195	0x3c792e30	0.015208766
196	0x3cd80288	0.026368394
197	0xbc58f340	-0.013241589
198	0x3da8bb3e	0.082388386
199	0x3e20554f	0.15657543
200	0xbdea79b9	-0.11448998
201	0xbdf36729	-0.118849106
202	0x3dce38ae	0.100694045
203	0xbe29e13a	-0.16589823
204	0x3e18aa6f	0.14908765
205	0x3dd90ec2	0.10598518
206	0x3d07e8a4	0.033180848
207	0xbdcbfa6c	-0.099598736
208	0x3be16a80	0.006879151
209	0xbe39bde1	-0.1813884
210	0xbe535ad1	-0.20640112
211	0x3e5d3a03	0.21604161
212	0xbe52b51c	-0.205769
213	0xbe42ed5e	-0.19035861
214	0xbdb68268	-0.08911592
215	0x3c5314d0	0.01288338
216	0x3d573864	0.052544013
217	0xbde787d5	-0.11305205
218	0xbcb65f50	-0.022262245
219	0xbd51d75c	-0.051230773
220	0x3e4490a3	0.191958
221	0x3e4be6b7	0.1991223
222	0x3dc11c22	0.09429194
223	0xbab95a80	-0.0014141351
224	0x3e302cf7	0.17204653
225	0xbe3dac10	-0.18522668
226	0x3dc44f06	0.09585385
227	0xbe088cd2	-0.13334969
228	0x3e3734d7	0.1789125
229	0xbe4faafd	-0.2028007
230	0x3dae9252	0.08524002
231	0xbe412614	-0.18862182
232	0x3e091c93	0.13389806
233	0x3d2bd244	0.04194857
234	0x3e49926b	0.1968476
235	0xbe312e9a	-0.17302933
236	0x3e17329f	0.14765404
237	0xbe1cc735	-0.15310366
238	0xbdfd9d50	-0.123835206
239	0x3db2b54a	0.087259844
240	0xbd1e2bd0	-0.038616
241	0xbe397a7d	-0.18113132
242	0xbe47e5e0	-0.19521284
243	0xbd73f75c	-0.059562072
244	0x3d8216de	0.06352018
245	0x3e4e5837	0.20150839
246	0x3e2cc655	0.16872533
247	0x3b766740	0.0037598163
248	0xbe10197c	-0.14072222
249	0xbe517205	-0.20453651
250	0x3e51e121	0.20496036
251	0xbe02fab7	-0.12790953
252	0xbd2543d8	-0.040347904
253	0xbe3d8fd4	-0.18511897
254	0xbe226166	-0.15857467
255	0x3d365524	0.04451479

node_gcn.conv2.bias f4 [32]
0	0x00000000	0.0
1	0x00000000	0.0
2	0x00000000	0.0
3	0x00000000	0.0
4	0x00000000	0.0
5	0x00000000	0.0
6	0x00000000	0.0
7	0x00000000	0.0
8	0x00000000	0.0
9	0x00000000	0.0
10	0x00000000	0.0
11	0x00000000	0.0
12	0x00000000	0.0
13	0x00000000	0.0
14	0x00000000	0.0
15	0x00000000	0.0
16	0x00000000	0.0
17	0x00000000	0.0
18	0x00000000	0.0
19	0x00000000	0.0
20	0x00000000	0.0
21	0x00000000	0.0
22	0x00000000	0.0
23	0x00000000	0.0
24	0x00000000	0.0
25	0x00000000	0.0
26	0x00000000	0.0
27	0x00000000	0.0
28	0x00000000	0.0
29	0x00000000	0.0
30	0x00000000	0.0
31	0x00000000	0.0

node_gcn.conv2.lin.weight f4 [32, 64]
0	0xbddfe918	-0.10933131
1	0x3df1e0cc	0.11810455
2	0x3e5f9eea	0.21837965
3	0x3e0a8f5c	0.1353125
4	0xbd57f448	-0.0527232
5	0xbe48fdf4	-0.19628125
6	0xbe535dec	-0.20641297
7	0xbd7534d0	-0.05986482
8	0xbda14b10	-0.07875645
9	0xbe42257a	-0.18959609
10	0x3d7d3cc0	0.061825514
11	0xbdc201d4	-0.09473005
12	0x3d947a64	0.07249907
13	0xbe07f136	-0.13275608
14	0xbcb88930	-0.022526354
15	0xbd9a15d4	-0.07523695
16	0x3e1d3f54	0.15356189
17	0xbe69a39c	-0.22816318
18	0xbdc9e630	-0.09858358
19	0x3d5aad20	0.05338776
20	0xbd903f4c	-0.07043323
21	0xbb8c3300	-0.0042785406
22	0x3e2d04ae	0.16896316
23	0x3d129678	0.03578803
24	0x3cfc7780	0.0308187
25	0x3d959430	0.07303655
26	0xbe09bb50	-0.1345036
27	0xbdcc7a10	-0.09984219
28	0x3df541d4	0.11975446
29	0x3d1471a8	0.036241204
30	0x3e26ff70	0.16308379
31	0xbd02bc68	-0.03191796
32	0x3e707cea	0.23485151
33	0x3e18e206	0.14929971
34	0xbd8f6ed8	-0.07003564
35	0xbe02d442	-0.12776282
36	0x3d4ec980	0.050485134
37	0xbe558ff4	-0.20855695
38	0xbdea7a4c	-0.114491075
39	0x3d9cd9e4	0.07658747
40	0x3cb2a0a0	0.021805108
41	0x3de7b56c	0.113139
42	0xbdd6292c	-0.10457072
43	0x3e576fd0	0.21038747
44	0xbe0cc654	-0.13747531
45	0xbe032ca8	-0.12810004
46	0x3e2b462c	0.16725987
47	0xbd459078	-0.04823348
48	0x3d92786c	0.07151875
49	0xbd35e8b0	-0.04441136
50	0xbe350d24	-0.17680794
51	0xbc23d900	-0.010000467
52	0x3de84864	0.113419324
53	0x3e2c8730	0.16848445
54	0x3e43486a	0.19070593
55	0xbc103c80	-0.008803487
56	0x3e396ba4	0.18107468
57	0x3d906d80	0.070521355
58	0x3c179460	0.009251684
59	0x3b9ac340	0.0047229826
60	0xbcc36b30	-0.023854822
61	0x3d923888	0.07139689
62	0xbc539c60	-0.012915701
63	0x3e24a2b6	0.16077694
64	0xbd1bf780	-0.03807783
65	0xbe0e287c	-0.13882631
66	0x3d94cb3c	0.072653264
67	0xbe0f7226	-0.14008388
68	0x3e1efb3a	0.15525523
69	0x3e5113e6	0.20417747
70	0x3d2462e0	0.040133357
71	0xbd4d6aa0	-0.050150514
72	0xbc38f640	-0.011289179
73	0x3defc9b4	0.11708394
74	0xbe439012	-0.19097927
75	0xbd890ca0	-0.06691861
76	0xbe1bf89c	-0.15231556
77	0xbe678d36	-0.22612461
78	0xbe372b2e	-0.17887565
79	0xbe247c0c	-0.16062945
80	0x3e42ec5c	0.19035476
81	0x3e1c7968	0.15280688
82	0xbe2dcb82	-0.16972163
83	0xbe4a0616	-0.19728884
84	0x3e6541e6	0.2238842
85	0x3d730fc8	0.059341222
86	0x3debc694	0.11512485
87	0x3d1fe9f8	0.03904149
88	0xbdbf4ea8	-0.09341174
89	0xbe0a4e50	-0.13506436
90	0x3e09bbd2	0.13450554
91	0xbe7ce3f4	-0.24696332
92	0xbe5505d6	-0.20803007
93	0x3d9a9d40	0.07549524
94	0xbd8644bc	-0.06556079
95	0x3d43df80	0.047820568
96	0x3e088950	0.1333363
97	0xbe131d6e	-0.14366695
98	0xbe101aee	-0.14072773
99	0xbe1d7490	-0.15376496
100	0xbe5ffcf4	-0.21873838
101	0xbc8aa110	-0.016922504
102	0x3e5962f8	0.2122916
103	0xbc7a59e0	-0.015280217
104	0x3e0c65ca	0.13710704
105	0xbdfea098	-0.124329746
106	0x3ccb3330	0.024804682
107	0xbe403ac0	-0.18772411
108	0xbc876000	-0.016525269
109	0x3d60b758	0.05486235
110	0xbddb1130	-0.10696638
111	0x3e6b0976	0.22952828
112	0x3d908e84	0.07058433
113	0x3e000c06	0.12504587
114	0x3e7ec720	0.24880648
115	0x3dd90a0c	0.105976194
116	0xbca0e560	-0.019640625
117	0x3df487d4	0.1193997
118	0x3e7c45b2	0.24635962
119	0xbe7675fa	-0.24068442
120	0xbd411000	-0.0471344
121	0x3df8a118	0.12140101
122	0xbd783118	-0.060593694
123	0xbe50469e	-0.20339438
124	0xbe149c70	-0.14512801
125	0xbe050e88	-0.12993824
126	0x3dd44488	0.10364634
127	0x3e22fc0e	0.15916464
128	0xbce91040	-0.028450131
129	0xbe5178d2	-0.20456246
130	0x3d117e90	0.03552109
131	0x3d8f248c	0.06989393
132	0xbdc1213c	-0.09430167
133	0x3db08bcc	0.08620414
134	0xbdd12618	-0.10212344
135	0x3dac5ca8	0.0841611
136	0x3e372a34	0.17887193
137	0x3dff587c	0.12468049
138	0xbcc18b30	-0.02362594
139	0x3e75e2f0	0.24012351
140	0xbcb416f0	-0.021983594
141	0xbe6456ca	-0.22298732
142	0x3e3803f6	0.17970261
143	0x3e6e0b38	0.23246467
144	0x3de9a83c	0.11409041
145	0x3e605ac4	0.21909624
146	0x3e0a445c	0.1350264
147	0x3dd0fbe8	0.10204297
148	0x3e143974	0.14475042
149	0xbe44a7c4	-0.19204623
150	0xbb437e80	-0.0029830039
151	0xbddab970	-0.10679901
152	0x3d8cd840	0.06877184
153	0xbe6263b4	-0.22108346
154	0x3c7225e0	0.014779538
155	0x3dc84eb4	0.097806364
156	0xbdbe409c	-0.09289667
157	0xbdce8144	-0.10083249
158	0xbe2607b4	-0.16213876
159	0x3d8cf7a0	0.06883168
160	0xbe56e2fa	-0.20985022
161	0xbd522f18	-0.051314443
162	0x3c63d3a0	0.013905436
163	0x3d921454	0.071327835
164	0xbe5bc66c	-0.2146241
165	0x3d4ea208	0.050447494
166	0xbdc8de54	-0.09808031
167	0xbcee6f50	-0.029105812
168	0xbe3ace46	-0.1824275
169	0xbe4911ba	-0.19635668
170	0x3d0bb088	0.0341039
171	0x3d2de2c8	0.042452604
172	0x3e5c0568	0.21486437
173	0x3e70e1fc	0.23523706
174	0x3e3b0b8c	0.18266124
175	0x3dc663f0	0.0968703
176	0x3e2a4200	0.1662674
177	0x3ddaa5f8	0.10676187
178	0xbe6e7c8e	-0.23289701
179	0x3e3a4eb2	0.18194082
180	0x3cf8a560	0.030352294
181	0xbd7f5d38	-0.06234476
182	0xbd984450	-0.074349046
183	0x3e4c330a	0.19941345
184	0x3e32a48a	0.17445579
185	0xbcbe3d50	-0.023222595
186	0xbdbf64e4	-0.09345415
187	0xbe09a2d2	-0.13441017
188	0x3e1394aa	0.1441218
189	0xbe1b3fdc	-0.15161079
190	0xbe29b738	-0.16573799
191	0xbe19a0de	-0.15002772
192	0x3d94a978	0.07258886
193	0x3e443dfa	0.19164267
194	0x3d4cab20	0.049967885
195	0x3dbed874	0.09318629
196	0xbe4ec210	-0.20191216
197	0xbe3a00ae	-0.18164322
198	0xbe15efc0	-0.14642239
199	0xbe23d06e	-0.15997478
200	0xbde48c70	-0.11159599
201	0xbe1b33ea	-0.15156522
202	0xbda7862c	-0.08179888
203	0xbe1e7946	-0.1547595
204	0x3d988268	0.07446748
205	0x3bd36980	0.0064517856
206	0x3c507100	0.012722254
207	0x3dd913d4	0.10599485
208	0xbe667cd8	-0.22508562
209	0xbdc872d4	-0.09787527
210	0xbc0b2140	-0.008491814
211	0xbe6f33c8	-0.23359597
212	0x3e080940	0.13284779
213	0xbe403a2c	-0.18772191
214	0x3e2d0d7a	0.16899672
215	0x3e7d58e8	0.24740946
216	0x3d530870	0.05152172
217	0xbdf933fc	-0.12168118
218	0x3e34ad66	0.17644271
219	0xbe27d434	-0.16389543
220	0x3c41ee80	0.011836648
221	0x3e208156	0.15674338
222	0x3e6fff6a	0.23437276
223	0x3c961110	0.018318683
224	0xbc9b6fe0	-0.018974245
225	0xbcb1b7a0	-0.021694005
226	0xbe7832ac	-0.2423808
227	0x3d35f688	0.044424564
228	0xbe4b322a	-0.19843355
229	0x3cb81a50	0.022473484
230	0xbd7352e0	-0.059405208
231	0x3e22c972	0.15897158
232	0xbdcd0180	-0.10010052
233	0x3e35f2d6	0.17768416
234	0xbd740230	-0.0595724
235	0xbd460d10	-0.0483523
236	0xbe690d0e	-0.22758886
237	0x3e5e7c14	0.2172702
238	0x3cb12430	0.0216237
239	0xbe66b90c	-0.22531527
240	0x3c665a20	0.014059573
241	0x3dd1b30c	0.102392286
242	0xbd586480	-0.05283022
243	0x3e50e8c2	0.2040129
244	0x3dfa6970	0.12227142
245	0xbd034148	-0.03204468
246	0x3e7ff02a	0.24993959
247	0x3e348b82	0.17631343
248	0xbcfb3550	-0.03066507
249	0xbcb0e820	-0.02159506
250	0x3d9d2214	0.076725155
251	0xbdb2695c	-0.08711502
252	0x3e1d9830	0.15390086
253	0xbe764c14	-0.24052459
254	0xbe092690	-0.13393617
255	0x3deab150	0.11459601

edge_cnn.conv1.weight f4 [32, 50, 1]
0	0x3e0632f1	0.1310537
1	0xbd2ae030	-0.041717708
2	0x3d13fe34	0.0361311
3	0x3ae35400	0.001734376
4	0x3dbe9994	0.093066365
5	0x3d7d597c	0.061852917
6	0xbbd74b80	-0.0065702796
7	0x3d9e6a92	0.077351704
8	0xbbebc5e0	-0.0071952194
9	0xbcc4f2fc	-0.024041645
10	0xbd61ca80	-0.05512476
11	0xbdec469e	-0.11536907
12	0x3df1efb2	0.118132964
13	0xbdb789f8	-0.08961862
14	0xbe0a0dcf	-0.1348183
15	0xbd81e8b1	-0.063432105
16	0x3cea0610	0.028567344
17	0xbc5245e0	-0.012834042
18	0x3d83d9cc	0.06438026
19	0x3da5f054	0.081024796
20	0x3daa55c8	0.08317143
21	0xbdf3021a	-0.11865635
22	0x3d6c2998	0.057656854
23	0x3d8f5e0e	0.070003614
24	0xbda0acfd	-0.07845495
25	0x3a339300	0.0006850213
26	0x3cada458	0.02119653
27	0x3c914608	0.017733589
28	0x3d9b6b62	0.07588841
29	0x3df5e636	0.120068
30	0x3e0b176b	0.13583152
31	0x3d01b198	0.031663507
32	0x3da96008	0.0827027
33	0x3d77aa4c	0.060465142
34	0xbd9cb070	-0.0765084
35	0x3dc1b54c	0.09458408
36	0xbc24a0d0	-0.010048106
37	0x3d6c6550	0.057713807
38	0xbdc03a3e	-0.09386109
39	0x3de7b85a	0.11314459
40	0x3d014834	0.031563
41	0x3d03444c	0.032047555
42	0xbe00d3e6	-0.12580833
43	0xbc495f30	-0.012290761
44	0xbd4a8ef4	-0.049452737
45	0x3e08b8ff	0.1335182
46	0xbe0494dc	-0.1294741
47	0xbd0ef2b4	-0.03489943
48	0xbd8fa778	-0.07014364
49	0xbdd1f591	-0.10251916
50	0x3d5ecb94	0.054393366
51	0xbdc7f81c	-0.0976412
52	0x3d88e890	0.06684983
53	0x3c8b0ef8	0.016974911
54	0xbd9955fe	-0.07487105
55	0xbc83d758	-0.016093895
56	0x3c48efb0	0.012264177
57	0xbd81140e	-0.06302653
58	0xbdba172c	-0.09086451
59	0xbda337d8	-0.07969636
60	0x3d0bc310	0.034121573
61	0xbdff34b4	-0.12461224
62	0x3db65fc0	0.089049816
63	0x3dbe36ae	0.09287773
64	0x3e052961	0.13004066
65	0x3df50bf6	0.11965172
66	0xbda2c64a	-0.07947977
67	0xbd7b5b24	-0.061366215
68	0x3dd3fd24	0.10351017
69	0xbc95dff8	-0.018295273
70	0xbdd53f70	-0.1041249
71	0xbd8abd30	-0.06774366
72	0x3dcb4e8a	0.099270895
73	0xbda4b3da	-0.080421165
74	0x3d4bbdfc	0.04974173
75	0xbdf1d4f4	-0.11808196
76	0x3dbf4098	0.09338492
77	0x3d1f51e8	0.03889647
78	0x3dc7c810	0.09754956
79	0x3b9e0ca0	0.0048232824
80	0x3d930560	0.071787596
81	0x3ded58d6	0.1158921
82	0xbc92257c	-0.01784014
83	0xbddae3d0	-0.10687983
84	0xbdcc5d16	-0.09978692
85	0x3da9d07a	0.08291717
86	0xbdb8b182	-0.09018232
87	0xbdfd883b	-0.123794995
88	0xbdf53c29	-0.11974365
89	0xbd80447c	-0.06263062
90	0x3cd6ed20	0.026236117
91	0xbe033807	-0.12814341
92	0xbd8634df	-0.06553053
93	0x3e0aa59f	0.13539742
94	0xbcc50b94	-0.024053372
95	0xbd4379b8	-0.047723502
96	0x3d88fbac	0.066886276
97	0xbdee5662	-0.1163757
98	0xbde2271d	-0.110426165
99	0x3ca5a528	0.020220354
100	0x3d371de0	0.044706225
101	0xbe0eb57a	-0.13936415
102	0x3dfe78e2	0.124254
103	0xbd618e98	-0.05506763
104	0x3cb0fc20	0.021604598
105	0x3dcde27a	0.100529626
106	0x3d5db970	0.054131925
107	0x3d33dcc0	0.043911695
108	0xbe042041	-0.12902929
109	0xbe071c50	-0.13194394
110	0x3d576d3c	0.05259441
111	0x3bac36e0	0.005255565
112	0x3db1d850	0.086838365
113	0x3d90f0d0	0.07077181
114	0xbde85baa	-0.113456085
115	0x3cd53ba0	0.026029408
116	0xbde3373c	-0.110945195
117	0xbda01a5c	-0.07817528
118	0x3d1f3024	0.03886427
119	0xbc018420	-0.007905036
120	0xbdb8f85a	-0.09031744
121	0x3d446ba4	0.047954217
122	0x3dc8fd9e	0.09813999
123	0xbe0e525c	-0.13898605
124	0x3e07d581	0.13265039
125	0x3d9fe266	0.07806854
126	0xbc434c20	-0.011920005
127	0xbe0c6e0a	-0.13713852
128	0xbd753748	-0.059867173
129	0x3d30c83c	0.04315971
130	0xbd76cb4e	-0.06025248
131	0xbd3e6852	-0.046486206
132	0xbd6f3796	-0.05840262
133	0x3df9053e	0.12159203
134	0x3df51d66	0.11968498
135	0xbde1e765	-0.11030463
136	0xbd32b570	-0.043630064
137	0x3e032b31	0.12809445
138	0xbc057580	-0.00814569
139	0xbd8d03bf	-0.0688548
140	0x3c8c1820	0.017101347
141	0x3de52a4a	0.111897066
142	0xbc936df0	-0.017996758
143	0xbe08a65a	-0.13344708
144	0xbd41a0aa	-0.04727236
145	0x3d90254a	0.07038362
146	0xbcab2d88	-0.020895734
147	0x3dcca328	0.09992057
148	0x3d4737ec	0.048637316
149	0x3aa29080	0.0012402683
150	0x3d5d4458	0.054020256
151	0xbc9c6124	-0.019089289
152	0xbdf84988	-0.121234
153	0xbdf83716	-0.12119882
154	0xbde3d1fe	-0.11124037
155	0xbcb88610	-0.022524863
156	0xbdd16b5a	-0.10225554
157	0x3ca9c820	0.02072531
158	0x3c84d6d0	0.016215712
159	0x3ddc6006	0.107605025
160	0x3c0248b0	0.0079519
161	0x3cc574f0	0.024103612
162	0x3d4dfa74	0.05028768
163	0xbd23c470	-0.03998226
164	0xbd905192	-0.07046808
165	0xbe083993	-0.13303213
166	0xbe0d0ae9	-0.13773693
167	0x3c185bb0	0.009299204
168	0xbd88f67e	-0.0668764
169	0x3d205c60	0.039150596
170	0x3d0ff6c4	0.035147443
171	0x3de1e43e	0.11029862
172	0xbc8d6e7c	-0.017264597
173	0xba1cc500	-0.0005980283
174	0x3dc7e5cc	0.09760627
175	0x3cc47620	0.023982108
176	0x3d848f58	0.06472653
177	0xbd9c6631	-0.07636679
178	0xbdd1573c	-0.10221717
179	0x3ddccfac	0.10781798
180	0x3dce75e2	0.10081078
181	0xbd5b54aa	-0.05354754
182	0x3cc07340	0.023492455
183	0xbe00ca6e	-0.12577221
184	0x3c222850	0.009897307
185	0xbe06739e	-0.13130042
186	0x3da3b3d6	0.07993285
187	0xbe0f88b4	-0.14016992
188	0xbd0bbb94	-0.034114435
189	0x3e071cc9	0.13194574
190	0xbd443e90	-0.047911227
191	0xbda7e228	-0.08197433
192	0x3e02a381	0.12757684
193	0xbd92806f	-0.07153403
194	0x3cff8400	0.031190872
195	0x3da1de3a	0.079037145
196	0x3d1ba2a4	0.037996903
197	0xbdc819fc	-0.09770581
198	0x3e036e9b	0.12835161
199	0x3d8ae278	0.06781477
200	0xbdb62182	-0.0889311
201	0xbda54d42	-0.080713764
202	0xbd0599da	-0.032617427
203	0x3d4140e8	0.04718104
204	0x3d5b0708	0.053473502
205	0x3c952c70	0.018209666
206	0x3dbdf186	0.092745826
207	0x3e101039	0.14068688
208	0x3cee58a8	0.029095009
209	0x3d62e464	0.05539359
210	0x3da4b624	0.08042553
211	0x3ce5a908	0.028034702
212	0x3c0edb90	0.00871934
213	0x3e02349f	0.12715386
214	0x3dc7f40e	0.097633466
215	0x3dbd2a6a	0.092366055
216	0xbd616566	-0.05502834
217	0xbd8a7938	-0.06761402
218	0xbd9d0ca3	-0.07668426
219	0xbdf28a8e	-0.118428335
220	0xbc6b6990	-0.01436843
221	0x3da33020	0.079681635
222	0x3ca9bbd0	0.020719439
223	0xbd4ce7f6	-0.050025903
224	0xbca0457c	-0.019564383
225	0xbdddf376	-0.10837452
226	0xbdba0aaf	-0.09084069
227	0x3c555140	0.01301986
228	0xbda847e6	-0.082168385
229	0x3c8ec928	0.017429903
230	0x3deedc72	0.1166314
231	0x3d145688	0.036215335
232	0x3dddb7e6	0.108260915
233	0xbdb77f4a	-0.08959825
234	0x3b710b40	0.0036780387
235	0xbe0e41e7	-0.13892327
236	0x3a806f80	0.0009798855
237	0xbdd55cbe	-0.1041808
238	0x3e07ea41	0.13272955
239	0xbdf799ee	-0.12089907
240	0x3d46037c	0.048343167
241	0xbdad407a	-0.084595636
242	0x3d2057e0	0.039146304
243	0xba415e00	-0.0007376373
244	0xbc942e4c	-0.018088482
245	0xbd60d0d6	-0.05488666
246	0x3dba3a66	0.0909317
247	0xbcd11f60	-0.025527656
248	0x3c457e60	0.012054056
249	0xbd2e9102	-0.04261876
250	0xbdd30fe4	-0.10305765
251	0xbd7169ca	-0.05893878
252	0x3e01d737	0.12679754
253	0x3e09d849	0.13461412
254	0xbd869004	-0.065704376
255	0x3c66ea40	0.0140939355

edge_cnn.conv1.bias f4 [32]
0	0x3c4bf8c0	0.012449443
1	0xbdfa52ef	-0.122228496
2	0x3d36be78	0.04461524
3	0xbb9a4740	-0.0047082007
4	0xbc36b370	-0.01115118
5	0x3c3ca660	0.011514276
6	0xbd845f3f	-0.06463479
7	0x3dc18aa2	0.0945027
8	0xbdd2a228	-0.10284835
9	0xbb0b9f80	-0.0021304786
10	0x3def199a	0.11674805
11	0x3cf41d70	0.029799193
12	0xbdd088b6	-0.101823255
13	0x3e0fd1df	0.14044903
14	0xbdabb562	-0.083842054
15	0xbd764146	-0.060120843
16	0x3db1db90	0.08684456
17	0xbdae24f4	-0.08503142
18	0x3bb95840	0.005656272
19	0x3d55b7e8	0.05217734
20	0x3da06edc	0.07833645
21	0xbdb31521	-0.087442644
22	0x3e0a29ef	0.13492559
23	0x3dd781f4	0.105228335
24	0xbd6668da	-0.056252338
25	0x3a5e1100	0.0008471161
26	0xbd4b045a	-0.049564697
27	0xbd95460a	-0.072887495
28	0x3dfb2736	0.12263338
29	0x3dd74fba	0.105132535
30	0x3d165500	0.036702156
31	0x3e0246a1	0.12722255

edge_cnn.conv2.weight f4 [32, 32, 1]
0	0xbe2fd536	-0.17171177
1	0x3c55a890	0.013040677
2	0xbdb3356b	-0.08750423
3	0x3dc43486	0.095803306
4	0x3c655060	0.013996214
5	0xbe0e3fd1	-0.13891532
6	0x3bb56e20	0.0055368096
7	0x3d945af8	0.072439134
8	0xbd5ec418	-0.05438623
9	0xbc890898	-0.01672773
10	0xbe00c161	-0.12573768
11	0x3e1c0349	0.15235628
12	0xbe2f3bce	-0.17112657
13	0xbdd64667	-0.10462647
14	0xbe0ed12a	-0.13946977
15	0xbda0fb6e	-0.078604564
16	0xbdc4f6cd	-0.09617386
17	0x3d646f10	0.05576998
18	0x3e1c7c67	0.1528183
19	0x3bfbe200	0.0076868534
20	0x3d25c2d8	0.04046902
21	0x3e08bbd1	0.13352896
22	0xbe34bdcd	-0.17650528
23	0x3c40b050	0.011760786
24	0x3da30b42	0.07961132
25	0x3d04344c	0.032276437
26	0xbd96bf23	-0.07360675
27	0xbd725c0c	-0.059169814
28	0xbdbd7132	-0.09250106
29	0x3e331e71	0.17492081
30	0xbd9ff5d8	-0.07810563
31	0xbcf868d8	-0.03032343
32	0x3b5c3dc0	0.0033606142
33	0xbe07e58b	-0.13271157
34	0xbded126e	-0.11575781
35	0xbdf44f21	-0.11929155
36	0x3d129144	0.035783067
37	0xbddb9a01	-0.10722733
38	0xbe0e9eaa	-0.13927713
39	0xbdce10a7	-0.1006177
40	0xbd79b73a	-0.060965754
41	0xbd44a710	-0.048010886
42	0xbde21962	-0.11039998
43	0x3d4ef104	0.05052282
44	0xbcb602a8	-0.022218063
45	0xbe02d291	-0.12775637
46	0x3da8b126	0.082369134
47	0x3d270584	0.040776744
48	0x3ce726b8	0.028216705
49	0x3e3249e9	0.17411007
50	0xbcf80d30	-0.030279726
51	0x3de458ee	0.111497745
52	0xbdb74e69	-0.089505024
53	0xbdb10b36	-0.086447164
54	0x3d2fe340	0.042941332
55	0xbdbcf84a	-0.09227045
56	0x3d9c22fa	0.07623859
57	0xbe2a9972	-0.16660097
58	0xbd84b9e5	-0.06480769
59	0x3e348365	0.17628248
60	0xbc12a820	-0.008951217
61	0x3dc4b2fa	0.096044496
62	0x3e2336c5	0.15938862
63	0xbd4eec98	-0.050518602
64	0xbd28c828	-0.04120651
65	0xbccfd940	-0.025372148
66	0xbdb45af8	-0.088064134
67	0xbbae9280	-0.0053275228
68	0x3dac8772	0.08424272
69	0x3e1c3cbf	0.15257548
70	0x3dfa74ca	0.12229307
71	0x3e3245c3	0.17409424
72	0xbdb6d724	-0.089277536
73	0xbdf9935c	-0.1218631
74	0xbe327c92	-0.17430332
75	0x3dd52c02	0.104087844
76	0x3da082ee	0.07837473
77	0xbd2d4d6c	-0.042310163
78	0x3e15a9af	0.1461551
79	0xbe024a12	-0.12723568
80	0xbcea4ca8	-0.028601006
81	0xbb978540	-0.004624039
82	0x3d91965c	0.07108757
83	0x3e16f6ff	0.14742659
84	0xbdcdd8b3	-0.10051098
85	0x3e349079	0.17633237
86	0x3e2c6b03	0.16837697
87	0x3d40a2e4	0.047030345
88	0xbdee460c	-0.11634454
89	0x3d6ebd28	0.058285862
90	0x3d16e364	0.03683795
91	0xbd834545	-0.064096965
92	0x3e2e44b9	0.17018403
93	0xbe116704	-0.14199454
94	0xbd809aa0	-0.062794924
95	0xbd87ccf8	-0.066308916
96	0xbd48f868	-0.049065024
97	0x3e062a39	0.13102044
98	0xbc102230	-0.008797213
99	0x3cc98000	0.024597168
100	0xbe217197	-0.15765987
101	0xbdf4e0dc	-0.11956951
102	0x3de369ca	0.11104162
103	0xbd5d500c	-0.054031417
104	0x3d8182c4	0.0632377
105	0xbe0b8421	-0.13624622
106	0xbdcd93d9	-0.10037965
107	0x3dae349a	0.08506127
108	0x3dfef396	0.12448804
109	0x3c340570	0.0109876245
110	0xbe23eb61	-0.16007759
111	0xbde3c5ea	-0.111217335
112	0xbd83b904	-0.06431773
113	0x3da88212	0.08227934
114	0xbe1335ad	-0.14375944
115	0xbde8833e	-0.113531575
116	0xbe33e553	-0.17567949
117	0xbdff6356	-0.12470119
118	0x3e0308c7	0.12796317
119	0xbd871169	-0.065951176
120	0xbd2ac928	-0.041695744
121	0x3bb27d40	0.00544706
122	0xbd0f3c1c	-0.034969434
123	0xbd781bbc	-0.060573325
124	0xbb6a9f80	-0.0035800636
125	0xbdb581c9	-0.08862645
126	0x3de5a8a2	0.11213805
127	0xbbe91160	-0.007112667
128	0x3da1f1ca	0.07907446
129	0x3cae91c8	0.021309748
130	0x3e086465	0.13319547
131	0x3db01c2e	0.08599125
132	0xbdb60267	-0.08887177
133	0xbd2a2d78	-0.04154727
134	0x3d271808	0.040794402
135	0xbd829d5b	-0.063776694
136	0xbdfaf3a5	-0.12253503
137	0x3e17c109	0.14819731
138	0x3df326e2	0.11872651
139	0xbdb4deff	-0.08831596
140	0x3d27274c	0.04080896
141	0x3e03422d	0.12818213
142	0xbddb5e44	-0.10711339
143	0xbcee9b48	-0.029126778
144	0xbe154792	-0.14578083
145	0xbe25a29a	-0.16175309
146	0x3e0fdea3	0.14049773
147	0x3d7d6c74	0.061871007
148	0xbdeb4cc4	-0.11489251
149	0xbc56f0c0	-0.013118923
150	0xbda865e7	-0.08222561
151	0xbd03f9e0	-0.03222072
152	0xbd1c8d2c	-0.03822057
153	0x3d655bec	0.055995867
154	0x3cfa9458	0.030588314
155	0xbdf577dc	-0.11985752
156	0x3db560ce	0.08856355
157	0x3c556a80	0.01302588
158	0xbdbd16ce	-0.09232865
159	0xbdd2506a	-0.10269244
160	0xbb7fa880	-0.0039010346
161	0x3d7c04cc	0.061528012
162	0xbe272d57	-0.1632589
163	0xbd28614c	-0.041108415
164	0xbe02cd7a	-0.12773696
165	0xbe294423	-0.16529898
166	0x3dc2047a	0.0947351
167	0xbd78c06c	-0.060730383
168	0xbe2c88e2	-0.16849092
169	0xbd5084bc	-0.050907835
170	0xbdc7f534	-0.09763566
171	0x3dc3b576	0.09556095
172	0xbce363f0	-0.027757615
173	0xbddb6e35	-0.1071438
174	0xbd93fc8a	-0.072259024
175	0xbd202d14	-0.03910549
176	0x3e0a8aa5	0.13529451
177	0x3c83aee0	0.016074598
178	0xbe0f40f6	-0.13989624
179	0xbd3b7a5c	-0.045770988
180	0x3e26d1dd	0.16290994
181	0xbe1aad92	-0.15105274
182	0xbd87c077	-0.06628507
183	0x3e1dae07	0.15398417
184	0xbd920445	-0.071297206
185	0x3e09e21d	0.13465162
186	0xbded182a	-0.115768746
187	0x3e09063b	0.13381283
188	0x3def3b6e	0.11681257
189	0xbd075cd8	-0.033047527
190	0xbe27e9f7	-0.16397844
191	0xbd74e94e	-0.05979281
192	0x3d355848	0.044273645
193	0xbd72816e	-0.059205465
194	0xbe1078a1	-0.14108516
195	0xbe1ffea2	-0.15624478
196	0x3dac647e	0.08417605
197	0x3e027c8d	0.12742825
198	0xbd8920e4	-0.066957265
199	0x3bdd5f20	0.0067557245
200	0xbddd9f63	-0.10821416
201	0x3dd1096e	0.10206877
202	0xbdede7ac	-0.116164535
203	0xbdcd541e	-0.1002581
204	0xbd9368c9	-0.071977206
205	0xbd04f84c	-0.032463357
206	0x3cb2f640	0.021845937
207	0xbe2aa593	-0.16664724
208	0xbd8466c4	-0.064649135
209	0xbd9d2041	-0.076721676
210	0xbd131598	-0.035909265
211	0xbc24e1f0	-0.010063633
212	0x3c07b590	0.008283034
213	0x3db8dc9e	0.090264544
214	0xbdce1c76	-0.10064022
215	0x3b7cc4c0	0.003856942
216	0x3e248071	0.16064622
217	0x3cb9c310	0.02267602
218	0xbe06788e	-0.13131925
219	0x3df7cd02	0.12099649
220	0xbe20a416	-0.15687594
221	0x3d93250c	0.071848005
222	0x3e15ddf7	0.14635454
223	0x3cb57f28	0.02215536
224	0x3dc2312a	0.094820336
225	0x3e0fa3bb	0.14027302
226	0x3da55006	0.08071904
227	0xbd5985d4	-0.053106144
228	0x3d1d70a4	0.0384375
229	0x3e126943	0.14297967
230	0x3d29c5a0	0.041448236
231	0xbe0fdd94	-0.14049369
232	0x3e1d844d	0.153825
233	0x3e2f6d37	0.17131506
234	0x3dd2176e	0.10258375
235	0x3dc4d13e	0.09610222
236	0x3dcb68d2	0.09932102
237	0xbddbcff2	-0.10733022
238	0xbd595564	-0.05305995
239	0x3d9c79be	0.07640408
240	0x3d386a38	0.045023173
241	0x3d99d8c2	0.075120464
242	0xbb5b4500	-0.0033457875
243	0xbe2e7292	-0.17035893
244	0x3dab9aea	0.08379157
245	0xbde3b7f3	-0.1111907
246	0xbe1596dc	-0.1460833
247	0x3e330413	0.17482023
248	0x3d9f98ae	0.07792793
249	0x3db3ed3a	0.08785482
250	0xbd9e9ed5	-0.077451386
251	0x3d856a38	0.065144
252	0x3c7626e0	0.015023917
253	0x3df6f37e	0.12058161
254	0x3ca96678	0.020678744
255	0x3e21caa1	0.15799953

edge_cnn.conv2.bias f4 [32]
0	0x3c2c7370	0.010525569
1	0xbd47b404	-0.04875566
2	0xbd946f00	-0.07247734
3	0xbd8627de	-0.06550573
4	0x3dfa643a	0.12226148
5	0x3e22a551	0.15883376
6	0x3d505c68	0.050869375
7	0x3dca292a	0.09871133
8	0x3d9d7bf6	0.07689659
9	0x39685400	0.00022156537
10	0xbe06bd8d	-0.13158245
11	0x3d35a4c8	0.0443466
12	0xbd78ce74	-0.060743764
13	0x3d8a9e62	0.067684904
14	0xbdeb925d	-0.11502526
15	0xbc44dc20	-0.0120153725
16	0xbd8e4ea9	-0.06948597
17	0xbe2775a5	-0.16353472
18	0xbe2759f0	-0.16342902
19	0x3e27031f	0.16309784
20	0xb949a800	-0.00019231439
21	0xbe1c0bee	-0.15238926
22	0x3ced75f8	0.028986916
23	0xbc35c4f0	-0.011094317
24	0x3e15207b	0.14563172
25	0x3e2a9a29	0.1666037
26	0xbd3a1c48	-0.045437127
27	0xbdd93e09	-0.106075354
28	0xbdcf79a1	-0.10130621
29	0xbd408678	-0.04700324
30	0xbdc6bc14	-0.09703842
31	0x3e232929	0.1593367

att.gate_nn.weight f4 [1, 32]
0	0xbd8a623f	-0.0675702
1	0x3dba86c2	0.09107734
2	0x3da3d76e	0.08000074
3	0x3d294ba4	0.041331902
4	0x3db07e52	0.08617844
5	0x3e19496f	0.14969419
6	0x3d9a0a72	0.075215235
7	0x3d9f4e5e	0.07778619
8	0xbe17e2ab	-0.1483256
9	0xbc805688	-0.015666261
10	0x3b85c000	0.004081726
11	0x3e0dc47f	0.13844489
12	0x3d9ab33e	0.07553719
13	0x3e0cc757	0.13747917
14	0x3e0c0409	0.13673414
15	0xbda8e014	-0.082458645
16	0x3ccd71e8	0.025078729
17	0x3e2c9b91	0.16856219
18	0x3d7ffa3c	0.0624945
19	0x3dccb336	0.09995119
20	0x3d9328bc	0.07185504
21	0xbd634bd6	-0.055492245
22	0x3d2ce7b0	0.042213142
23	0xbdfa2736	-0.1221451
24	0x3e270057	0.16308723
25	0x3c25b7b0	0.010114595
26	0x3e0c46d3	0.13698892
27	0xbdfe8003	-0.1242676
28	0xbe264b7c	-0.16239733
29	0x3cad6520	0.021166384
30	0xbcb98990	-0.022648603
31	0xbd9271b5	-0.07150594

fc.weight f4 [2, 64]
0	0xbda6886a	-0.08131488
1	0x3de05454	0.10953584
2	0xbdf9e914	-0.12202659
3	0x3cd200b0	0.025635093
4	0xbd95aecc	-0.073087305
5	0x3cde25c8	0.027117625
6	0x3dfcd1f0	0.1234473
7	0xbc75d140	-0.015003502
8	0x3cee1920	0.029064715
9	0xbd497dec	-0.049192354
10	0xbd835d80	-0.06414318
11	0xbddaacf6	-0.10677521
12	0x3d93c362	0.07215001
13	0xbab5f580	-0.0013882369
14	0x3d314da0	0.04328692
15	0xbdc4e352	-0.096136704
16	0xbdd522d0	-0.104070306
17	0xbde8c708	-0.11366087
18	0xbd938764	-0.07203558
19	0xbc852538	-0.016253099
20	0xbc9a81c8	-0.018860713
21	0x3d6120c8	0.054962903
22	0xbd7604a4	-0.06006302
23	0x3df9715e	0.12179826
24	0xbd69526c	-0.05696337
25	0xbdf0be08	-0.117549956
26	0x3dc1a78a	0.09455784
27	0xbda48616	-0.08033387
28	0x3c432e20	0.0119128525
29	0xbc45b970	-0.0120681375
30	0xbcd59a00	-0.02607441
31	0x38a9d800	8.098781e-05
32	0xbdfbbda6	-0.12292032
33	0x3de63446	0.11240439
34	0xbda6308e	-0.0811473
35	0x3d9c1596	0.07621305
36	0xbd9760b6	-0.07391493
37	0xbcfc27b0	-0.030780643
38	0xbb41bd40	-0.0029562265
39	0xbd49cd5c	-0.04926811
40	0xbd5dd03c	-0.054153666
41	0xbdd77bb4	-0.105216414
42	0xbdafd474	-0.08585444
43	0xbbc02ec0	-0.005864948
44	0xbd15ab74	-0.036540464
45	0xbc8fce68	-0.017554477
46	0x3d029c78	0.0318875
47	0xbc834700	-0.016025066
48	0xbdf256e8	-0.11832982
49	0xbd3c4dbc	-0.04597257
50	0x3d1cb6a0	0.038260102
51	0x3d3844e4	0.044987574
52	0x3d77c2dc	0.060488567
53	0x3be2d2e0	0.006922111
54	0x3daf0590	0.08545983
55	0xbdaf2f02	-0.08553888
56	0xbdd6d5c4	-0.10489991
57	0xbd088328	-0.033328205
58	0x3a5cfc00	0.0008429885
59	0x3db9dfd0	0.09075892
60	0xbd93a1ee	-0.0720862
61	0xbdb34a8a	-0.087544516
62	0xbb5d9fc0	-0.0033817142
63	0x3d023394	0.03178747
64	0xbde97de4	-0.11400965
65	0xbd4e63f8	-0.050388306
66	0xbdc919ac	-0.0981935
67	0x3cef4cf0	0.029211491
68	0x3c3f0c50	0.01166065
69	0xbde3a57c	-0.11115548
70	0xbdaa7792	-0.083235875
71	0x3bbd67c0	0.00578019
72	0xbd07acd8	-0.03312382
73	0xbdc601e4	-0.09668329
74	0xbd1b2650	-0.037878335
75	0xbdeb1b1a	-0.114797786
76	0xbc69da50	-0.014273241
77	0xbc6eb770	-0.014570102
78	0x3bd6b4a0	0.006552294
79	0x3c2df2e0	0.010616988
80	0xbcb25e40	-0.021773458
81	0x3dcc4c62	0.09975506
82	0xbd37503c	-0.04475425
83	0x3d676118	0.05648908
84	0x3d414e38	0.047193736
85	0xbc7b06f0	-0.015321478
86	0xbdbb9b5e	-0.09160493
87	0xbdd7b51a	-0.10532589
88	0x3d0db9a0	0.034600854
89	0x3d1c895c	0.038216934
90	0x3d9b4402	0.07581331
91	0xbd62a264	-0.05533065
92	0x3dceb0a6	0.10092287
93	0x3dfff7c2	0.12498428
94	0xbca2deb0	-0.019881576
95	0xbd47859c	-0.048711404
96	0xbd20d2e8	-0.039263636
97	0xbdde90b6	-0.10867445
98	0x3d9394ba	0.07206102
99	0x3c5f3290	0.013622895
100	0x3d6be210	0.057588637
101	0x3da47b14	0.08031288
102	0xbd596f00	-0.053084373
103	0x3a989080	0.0011639744
104	0x3dcef2ee	0.10104929
105	0xbdc55a00	-0.09636307
106	0x3de113a4	0.10990074
107	0x3d851f02	0.06500055
108	0xbd20ccb0	-0.039257705
109	0xbdd106da	-0.10206385
110	0x3d88bc78	0.066765726
111	0x3d744758	0.05963835
112	0xbd67ddb0	-0.056607902
113	0x3d73c15c	0.059510574
114	0x3d17f50c	0.03709893
115	0x3dfbfefc	0.12304494
116	0x3d82f316	0.06394021
117	0x3c9e18a8	0.019298866
118	0xbdfd64da	-0.123727515
119	0x3dd058a2	0.10173155
120	0x3ddbcd00	0.1073246
121	0xbd0deb8c	-0.034648463
122	0xbc202830	-0.009775206
123	0xbb9f9400	-0.004869938
124	0xbbfa1d20	-0.0076328665
125	0x3d8b2a1a	0.067951396
126	0x3c8a6918	0.016895816
127	0xbddea478	-0.10871214

fc.bias f4 [2]
0	0x3d24bb28	0.04021755
1	0xbd9d3fd2	-0.076781884
